…
perimental outputs:\n    # 1. Model\n    torch.save(model.state_dict(), '../models/'+nb_name+'/model.pt') # convention is to use .pt or .pth\n\n    # 2. loss_df\n    loss_df.to_csv('../reports/'+nb_name+'/loss_df.csv', index=False)  \n    \n    # 3. predictions \n    yhats = pd.concat([\n        yhat_loop(testing_dataloader, model).assign(Split = 'Test'),\n        yhat_loop(training_dataloader, model).assign(Split = 'Train')], axis = 0)\n\n    yhats.to_csv('../reports/'+nb_name+'/yhats.csv', index=False)\n\n\nNeuralNetwork()\n\nNeuralNetwork(\n  (input_processing_long_way): Sequential(\n    (0): Conv1d(4, 10, kernel_size=(4,), stride=(1,))\n    (1): Conv1d(10, 10, kernel_size=(20,), stride=(1,), padding=same)\n    (2): Dropout(p=0.75, inplace=False)\n  )\n  (input_processing_shortcut): Sequential(\n    (0): Conv1d(4, 10, kernel_size=(4,), stride=(1,))\n  )\n  (feature_processing): Sequential(\n    (0): Conv1d(10, 10, kernel_size=(4,), stride=(1,))\n    (1): Dropout(p=0.75, inplace=False)\n  )\n  (output_processing): Sequential(\n    (0): Flatten(start_dim=1, end_dim=-1)\n    (1): ReLU()\n    (2): Dropout(p=0.75, inplace=False)\n    (3): Linear(in_features=9434490, out_features=1, bias=True)\n  )\n)"
  },
  {
    "objectID": "tianetal2011_model_g2pdeep.html#standard-visualizations",
    "href": "tianetal2011_model_g2pdeep.html#standard-visualizations",
    "title": "Tian et al. 2011 Model 3 (G2PDeep Inspired)",
    "section": "Standard Visualizations",
    "text": "Standard Visualizations\n\nloss_df = pd.read_csv('../reports/'+nb_name+'/
…
n    # experimental outputs:\n    # 1. Model\n    torch.save(model.state_dict(), '../models/'+nb_name+'/model.pt') # convention is to use .pt or .pth\n\n    # 2. loss_df\n    loss_df.to_csv('../reports/'+nb_name+'/loss_df.csv', index=False)  \n    \n    \n    # 3. predictions \n    yhats = pd.concat([\n        yhat_loop(testing_dataloader, model).assign(Split = 'Test'),\n        yhat_loop(training_dataloader, model).assign(Split = 'Train')], axis = 0)\n\n    yhats.to_csv('../reports/'+nb_name+'/yhats.csv', index=False)\n\n\nNeuralNetwork()\n\nNeuralNetwork(\n  (long_way_0): Sequential(\n    (0): Conv2d(4, 4, kernel_size=(3, 3), stride=(2, 2))\n    (1): Conv2d(4, 4, kernel_size=(3, 3), stride=(1, 1), padding=(1, 1))\n    (2): Dropout(p=0.0, inplace=False)\n  )\n  (shortcut_0): Sequential(\n    (0): Conv2d(4, 4, kernel_size=(3, 3), stride=(2, 2))\n  )\n  (long_way_1): Sequential(\n    (0): Conv2d(4, 4, kernel_size=(3, 3), stride=(2, 2))\n    (1): Conv2d(4, 4, kernel_size=(3, 3), stride=(1, 1), padding=(1, 1))\n    (2): Dropout(p=0.0, inplace=False)\n  )\n  (shortcut_1): Sequential(\n    (0): Conv2d(4, 4, kernel_size=(3, 3), stride=(2, 2))\n  )\n  (long_way_2): Sequential(\n    (0): Conv2d(4, 4, kernel_size=(3, 3), stride=(2, 2))\n    (1): Conv2d(4, 4, kernel_size=(3, 3), stride=(1, 1), padding=(1, 1))\n    (2): Dropout(p=0.0, inplace=False)\n  )\n  (shortcut_2): Sequential(\n    (0): Conv2d(4, 4, kernel_size=(3, 3), stride=(2, 2))\n  )\n  (feature_processing): Sequential(\n    (0): Conv2d(4, 4, kernel_size=(3, 3), stride=(2, 2))\n    (1): Dropout(p=0.0, inplace=False)\n  )\n  (output_processing): Sequential(\n    (0): Flatten()\n    (1): ReLU()\n    (2): Dropout(p=0.0, inplace=False)\n    (3): Linear(in_features=15876, out_features=1, bias=True)\n  )\n)"
  },
  {
    "objectID": "tianetal2011_model_g2pdeephilbert_nodropout.html#standard-visualizations",
    "href": "tianetal2011_model_g2pdeephilbert_nodropout.html#standard-visualizations",
    "title": "Tian et al. 2011 Model 5 Conv. 2d Hilbert Curve",
    "section": "Standard Visualizations",
    "text": "Standard Visualizations\n\nloss_df = 
…
n    # experimental outputs:\n    # 1. Model\n    torch.save(model.state_dict(), '../models/'+nb_name+'/model.pt') # convention is to use .pt or .pth\n\n    # 2. loss_df\n    loss_df.to_csv('../reports/'+nb_name+'/loss_df.csv', index=False)  \n    \n    \n    # 3. predictions \n    yhats = pd.concat([\n        yhat_loop(testing_dataloader, model).assign(Split = 'Test'),\n        yhat_loop(training_dataloader, model).assign(Split = 'Train')], axis = 0)\n\n    yhats.to_csv('../reports/'+nb_name+'/yhats.csv', index=False)\n\n\nNeuralNetwork()\n\nNeuralNetwork(\n  (long_way_0): Sequential(\n    (0): Conv1d(4, 4, kernel_size=(3,), stride=(2,))\n    (1): Conv1d(4, 4, kernel_size=(3,), stride=(1,), padding=(1,))\n    (2): Dropout(p=0.75, inplace=False)\n  )\n  (shortcut_0): Sequential(\n    (0): Conv1d(4, 4, kernel_size=(3,), stride=(2,))\n  )\n  (long_way_1): Sequential(\n    (0): Conv1d(4, 4, kernel_size=(3,), stride=(2,))\n    (1): Conv1d(4, 4, kernel_size=(3,), stride=(1,), padding=(1,))\n    (2): Dropout(p=0.75, inplace=False)\n  )\n  (shortcut_1): Sequential(\n    (0): Conv1d(4, 4, kernel_size=(3,), stride=(2,))\n  )\n  (long_way_2): Sequential(\n    (0): Conv1d(4, 4, kernel_size=(3,), stride=(2,))\n    (1): Conv1d(4, 4, kernel_size=(3,), stride=(1,), padding=(1,))\n    (2): Dropout(p=0.75, inplace=False)\n  )\n  (shortcut_2): Sequential(\n    (0): Conv1d(4, 4, kernel_size=(3,), stride=(2,))\n  )\n  (feature_processing): Sequential(\n    (0): Conv1d(4, 4, kernel_size=(3,), stride=(2,))\n    (1): Dropout(p=0.75, inplace=False)\n  )\n  (output_processing): Sequential(\n    (0): Flatten(start_dim=1, end_dim=-1)\n    (1): ReLU()\n    (2): Dropout(p=0.75, inplace=False)\n    (3): Linear(in_features=235860, out_features=1, bias=True)\n  )\n)"
  },
  {
    "objectID": "tianetal2011_model_g2pdeep3resblocks.html#standard-visualizations",
    "href": "tianetal2011_model_g2pdeep3resblocks.html#standard-visualizations",
    "title": "Tian et al. 2011 Model 4 (G2PDeep Inspired, Smaller)",
    "section": "Standard Visualizations",
    "text": "Standard Visualizations\n\nloss_df = pd.read_
…
\n    # experimental outputs:\n    # 1. Model\n    torch.save(model.state_dict(), '../models/'+nb_name+'/model.pt') # convention is to use .pt or .pth\n\n    # 2. loss_df\n    loss_df.to_csv('../reports/'+nb_name+'/loss_df.csv', index=False)  \n    \n    \n    # 3. predictions \n    yhats = pd.concat([\n        yhat_loop(testing_dataloader, model).assign(Split = 'Test'),\n        yhat_loop(training_dataloader, model).assign(Split = 'Train')], axis = 0)\n\n    yhats.to_csv('../reports/'+nb_name+'/yhats.csv', index=False)\n\n\nNeuralNetwork()\n\nNeuralNetwork(\n  (x_network): Sequential(\n    (0): Conv1d(4, 4, kernel_size=(3,), stride=(2,))\n    (1): MaxPool1d(kernel_size=(3,), stride=2, padding=0, dilation=1, ceil_mode=False)\n    (2): Conv1d(4, 4, kernel_size=(3,), stride=(2,))\n    (3): MaxPool1d(kernel_size=(3,), stride=2, padding=0, dilation=1, ceil_mode=False)\n    (4): Conv1d(4, 4, kernel_size=(3,), stride=(2,))\n    (5): MaxPool1d(kernel_size=(3,), stride=2, padding=0, dilation=1, ceil_mode=False)\n    (6): Conv1d(4, 4, kernel_size=(3,), stride=(2,))\n    (7): MaxPool1d(kernel_size=(3,), stride=2, padding=0, dilation=1, ceil_mode=False)\n    (8): Conv1d(4, 4, kernel_size=(3,), stride=(2,))\n    (9): MaxPool1d(kernel_size=(3,), stride=2, padding=0, dilation=1, ceil_mode=False)\n    (10): Conv1d(4, 4, kernel_size=(3,), stride=(2,))\n    (11): MaxPool1d(kernel_size=(3,), stride=2, padding=0, dilation=1, ceil_mode=False)\n    (12): Conv1d(4, 4, kernel_size=(3,), stride=(2,))\n    (13): MaxPool1d(kernel_size=(3,), stride=2, padding=0, dilation=1, ceil_mode=False)\n    (14): Conv1d(4, 4, kernel_size=(3,), stride=(2,))\n    (15): MaxPool1d(kernel_size=(3,), stride=2, padding=0, dilation=1, ceil_mode=False)\n    (16): Flatten(start_dim=1, end_dim=-1)\n    (17): Linear(in_features=52, out_features=32, bias=True)\n    (18): BatchNorm1d(32, eps=1e-05, momentum=0.1, affine=True, track_running_stats=True)\n    (19): ReLU()\n    (20): Linear(in_features=32, out_features=32, bias=True)\n    (21): BatchNorm1d(32, eps=1e-05, momentum=0.1, affine=True, track_running_stats=True)\n    (22): ReLU()\n    (23): Linear(in_features=32, out_features=1, bias=True)\n  )\n)"
  },
  {
    "objectID": "tianetal2011_model_simple_cnn1d.html#standard-visualizations",
    "href": "tianetal2011_model_simple_cnn1d.html#standard-visualizations",
    "title": "Tian et al. 2011 Model 2",
    "section": "Standard Visualizations",
    "text": "Standard Visualizations\n\nloss_df = pd.read_csv('../reports/'+nb_name+'/loss_df.csv')\
…
